regressor_hood_weights.pth (torch, 790792 bytes, 3 tensors)

0.weight f4 [256, 768]
00000000: a579 b83c e1fb c9bb c989 15bd de3a 98bc
00000010: 629e 0b3d e0cd 2a3a d675 1bbc 324e 9ebc
00000020: 507f 07bd 1bc2 2ebc 67a2 123c 2df5 8fbb
00000030: 618c dfbb 0a5e 65bc 0cdd cfbc 4b37 ffbc
00000040: e256 cabb d81a cd3c fae6 b4bc 1579 433c
00000050: d561 07bd 01a0 82bc 50d9 b23b ceaa ce3c
00000060: d2f5 3e3c 8645 153d 27eb ca3b 4f6d c7bc
00000070: a3fb 44bc 2032 3dbc 054e aebc d526 74bc
00000080: 7465 103d a898 ef3c 98b5 833c 1f8f ce3a
00000090: e5c2 943c 5a2b dfbb 229b f13c 6d65 303c
000000a0: 5eb5 143c 6493 a4bc e3d2 563d eaa8 043d
000000b0: 3bab f1bc 5a70 9bbc 7084 84bd 3524 90bc
000000c0: 78cf 60bd b123 59bc 8e2c 183d ac10 49b9
000000d0: cc54 7e3c 06af 47bc 30ef 743c ba03 a93c
000000e0: 366d d33c dcae 183b 0185 963c 7885 db3c
000000f0: b0b6 d2bc 43cd b23c 51bf 943c f133 b93a
00000100: 5068 ce3c 123c 963b ee68 39bd 3fca 0a3d
00000110: b5dc 0ebd f193 ed3c 9714 ccbb 4332 3b3b
00000120: 3e7a 24bc 841e 1cbd 3257 9a3b 9dba c63b
00000130: 2aa9 0cbd 93c0 9d3b 2fbe dbbc 2238 82bc
00000140: da57 143d 2ba9 46bb be25 1ebb 4e07 d83c
00000150: 3f3c a03c 9c9d af3c 54b2 55bc bfe7 cf3c
00000160: 3162 913c 92bf 653d 90f9 3b3b 6148 0e3d
00000170: e6fb 513b cdc1 833c c48c 153d 3c5d a9bc
00000180: ed73 0dbd 4aef 073d e605 903c 97ba 15bd
00000190: 4dd4 36bc 8c49 6a3c 0787 3c3c 3e75 bb3c
000001a0: 29e7 09bd e08e c1ba 82fc 3fbc 1bc3 f0bc
000001b0: 17e7 76bc e8d6 f4bc 9556 303d 438f 79bc
000001c0: 024c c53a e9ae f3bc 942c 733c f1c0 553d
000001d0: db80 cbbc 92f2 9cbc 5625 c6bc 20a1 8cbb
000001e0: bb5b 95bc d1fd 8bbc 18b1 42b9 e123 7abd
000001f0: b8c2 f9bc 9313 073c 39df 88bd 7eea 023d
00000200: e18f 2e3d ba73 26bc 904d 133d 695b 8fbb
00000210: 2945 24bd ebcd 003d f1b1 123d 9097 1ebd
00000220: 00e8 c6bc 052b 5fbc 922c aabb 319f 83bc
00000230: 623e 03bd 3503 a7bc 6b21 643a 8fd5 5c3a
00000240: bc0c 9a3d 3a41 bd3c 41ef f5bc e57a f43a
00000250: a14e b7bc 9792 44bd ea63 f4bc 9d93 eabc
00000260: 5f72 0ebd 80bb 69bb 42a3 a83c 1af6 8dbb
00000270: 5aea 5cbb eb36 b03b 90b4 d1bc 4608 16bb
00000280: a1a1 0bbb d66e 67bd 1f89 ba3c 9d24 63bd
00000290: 6d49 6c3c 83fc c63c 7418 083d f781 143d
000002a0: 60a7 a9bc 093e 58bc 1f62 1cbc a01e 84bc
000002b0: fd85 a03c beae ab3c 9345 e73b 4ba7 84bc
000002c0: 86e7 48bd 8d32 3fbb 9b32 c63b d0fe 133d
000002d0: 3d1b 37bd a242 e73c f417 883b b66d bebb
000002e0: af46 38bd d30e 143c 6328 d9bc 59ea bc3b
000002f0: 1b1a 42bb 48fa 8d3c cdd9 c93c a195 0cbd
00000300: 0fb4 1cbd ca76 10bc 5e51 3dbc a98c 09bd
00000310: d258 06bd 62cf 10bc 2c60 163d 4934 073b
00000320: 9c3c eabc da92 4fbc 39d5 bc3c d704 24bd
00000330: 2d2d 8cbb b37c 94bc e978 ecbc d93d 363d
00000340: 99db 07bc 256a 7bbd 8049 77bc 3a71 7ebc
00000350: 403f 88bc 721a 96bc cde4 2e3d a191 2bbd
00000360: 85cc 8f3c 4ac9 563c 8b4e 133d 468a 09bd
00000370: 5a2b 8bbc 721f 133d aaf1 96bc 26f7 f33c
00000380: 525f bcbb 2288 3abd a67d 363b 1c39 c83c
00000390: e8bc ad3a 34c2 c4bb 2ab5 34bd 8597 bcbb
000003a0: 470a 34bd c709 99bc cccc 14bd e60c 2dbd
000003b0: 3c58 213d 6c32 703d c603 9b3b 2299 a0bd
000003c0: 211a 53bb 8fbb 45bc da20 e939 66db aa3c
000003d0: 8493 b6bb ad62 493c f20b c13c 6765 f2bc
000003e0: 0ed5 ae3c 6153 963c 15ed 80bd 4e13 d9bc
000003f0: 2610 dfbb cd83 fdbc 762f 0fbd 2375 8f3c
0.022518942 -0.0061640595 -0.036508355 -0.018582758 0.034086592 0.0006515663 -0.0094885435 -0.019324396
-0.0330804 -0.010666396 0.008949853 -0.004393241 -0.0068221544 -0.013999471 -0.025373958 -0.031154295
-0.006174908 0.025037214 -0.022082794 0.011930724 -0.033052284 -0.015945436 0.0054580346 0.02522793
0.011655288 0.036443256 0.006192583 -0.024344115 -0.0120228855 -0.011547595 -0.021277437 -0.014901836
0.035253003 0.029247597 0.016077802 0.0015759206 0.01815934 -0.006810588 0.029492918 0.010766369
0.009076444 -0.020089813 0.05244721 0.03238765 -0.029500594 -0.018974472 -0.06470573 -0.01759539
-0.054885358 -0.013253138 0.037151866 -0.00019175065 0.015523147 -0.012187725 0.014949605 0.02063166
0.025808912 0.0023297584 0.018373968 0.026797041 -0.025721878 0.021826392 0.018157633 0.001412986
0.025196224 0.0045847977 -0.045266084 0.033884283 -0.03487845 0.029001208 -0.0062280404 0.0028563894
-0.01003891 -0.03811504 0.0047101015 0.0060647265 -0.034341015 0.0048142164 -0.026824085 -0.015895907
0.036216594 -0.0030313234 -0.0024131383 0.02637067 0.019559978 0.021437459 -0.013043005 0.02537906
0.017747017 0.0560909 0.0028682686 0.034736995 0.0032041012 0.016083622 0.036511198 -0.02067434
-0.034534384 0.03318719 0.017580938 -0.0365549 -0.011159015 0.0142997615 0.011506802 0.022883054
-0.033667717 -0.0014767312 -0.011717917 -0.029389909 -0.015069745 -0.029887632 0.04305132 -0.01523191
0.0015052559 -0.02974649 0.014842171 0.052185956 -0.024841717 -0.019158635 -0.024187725 -0.0042916685
-0.018232217 -0.017088803 -0.00018567254 -0.061069373 -0.030488357 0.008244413 -0.06683201 0.03196191
0.042617682 -0.010159427 0.03596264 -0.0043749106 -0.04010502 0.03144638 0.03581423 -0.03871876
-0.024280548 -0.0136210965 -0.0051933015 -0.01606712 -0.032041915 -0.020387271 0.00087024894 0.00084241567
0.0752196 0.023102392 -0.030021312 0.0018652348 -0.02237636 -0.04799136 -0.029832799 -0.02863484
-0.03477704 -0.0035664737 0.02058566 -0.004332316 -0.003370902 0.0053776405 -0.025598794 -0.0022893115
-0.0021306055 -0.056502186 0.022770463 -0.05545484 0.014421803 0.024290329 0.033226445 0.036256757
-0.020709693 -0.013198384 -0.009544878 -0.016127884 0.01959514 0.020957347 0.0070578544 -0.016193053
-0.049048923 -0.0029174418 0.006048513 0.03613168 -0.04470371 0.028230015 0.004153246 -0.0058114184
-0.044989284 0.0090367375 -0.026508516 0.005765241 -0.002961761 0.017331257 0.024639988 -0.034322385
-0.038257655 -0.008817384 -0.011555044 -0.03358141 -0.03279955 -0.008838506 0.03671281 0.002063053
-0.028593354 -0.0126692895 0.023050891 -0.040043678 -0.0042778463 -0.018125867 -0.028866248 0.044492576
-0.008292102 -0.061380524 -0.015093207 -0.015529925 -0.016631722 -0.018323157 0.04269867 -0.04188693
0.017553577 0.0131095145 0.035963576 -0.033579133 -0.016988445 0.03591866 -0.018425781 0.029780935
-0.0057486678 -0.045539983 0.0027845888 0.024441294 0.0013255151 -0.006004596 -0.044118084 -0.005755367
-0.043955114 -0.01868142 -0.036328122 -0.04224863 0.039390787 0.058641836 0.0047306744 -0.07841708
-0.003221162 -0.012068643 0.000444657 0.02085657 -0.0055717845 0.012291593 0.023565266 -0.029589368
0.021341827 0.018350305 -0.0629522 -0.026498463 -0.006807345 -0.030946637 -0.03495737 0.01751191

0.bias f4 [256]
00000000: 6833 d33b 3c7e 99bc e4e8 b03c ae78 1fbc
00000010: 79f0 f63c 1610 1abc de6e 343c 19ca 58bb
00000020: f0be d3bb fa22 caba 3927 71ba d790 1dbb
00000030: 87b5 d9bc c76e f73c a03c 043d 4d36 2bb9
00000040: d350 ce3c 7928 873b 5edd d13c a42b 983c
00000050: a6c8 6e3c c1c6 833c 9b03 cbbc 55b6 993c
00000060: 5fa0 b2bb 959d 9f3c d8c6 6dbc 5de5 7f3c
00000070: 0f0b 04bc ab52 083d 9859 d53c 2007 5a3b
00000080: d71d bc3c cd8a d83c c219 9d3c bdf2 0cbd
00000090: d6c7 233b 54fe 9abb e56d 613b 51c4 893b
000000a0: e38b 3a39 3dab bb3c 6c69 ed3c 2786 413b
000000b0: 25a6 cbbc 872b 97ba 995e 85bc 87d6 fc3c
000000c0: 5ce0 823c fd42 8f3c c695 17bd 7844 5f3c
000000d0: de62 093c e12e c93c a1e8 eb3c c5a7 f53c
000000e0: 05ea 1cbd ae88 273b 9273 fabc a6e6 9ebc
000000f0: f04c 54bb 56bd 7bba b2a4 403c a93c 8cbc
00000100: 8c71 adbc 9595 a73b 6e2f cdbc f986 9bbb
00000110: 40f6 f9b8 2ea9 413c fb14 4bbb 96bb db3c
00000120: bdf8 41bc 710c bbbc 5f44 a13b 3a63 e03c
00000130: df1a 003c 275b ffbb 7637 c4bc 3ae8 7bbc
00000140: 10c5 9ebc b5c5 d3bc 5606 e03c 4197 f3bc
00000150: 0c67 ed3c b9e6 10bd 4608 f13b 0a78 81bc
00000160: 9c34 c9bb e50a 423b a5da 64bb fd29 dc3c
00000170: 9dae e9bc 8a99 06ba bfbe d3bc f07d cdbc
00000180: 1ca2 f03b 36cf 9abc 53d1 0a3d cafa 083c
00000190: dbae ecbc 386b bc3b d5b3 7ebb d53f 8b3c
000001a0: 8abb 27bd a5d0 7a3c cb57 c2bb 8fd1 883a
000001b0: 6705 fcbb 6076 123d eac7 0fbc 87d2 bcbc
000001c0: 8723 06bc 4c68 18bd 0d86 443c e96d 05bc
000001d0: ccbd f13c 06e8 a8bc 30c4 593c 50cd b1bb
000001e0: 244f d9bc bd18 a8bc 0d54 a8ba a27f 63bc
000001f0: 26e3 183d 745b c93b cdc8 b23c 867d 283b
00000200: 7e73 b9bc 63dd 7f3c f5ae f83c 4905 a33c
00000210: 8e8c dfbc 0142 d5bb 8f86 21bc 5576 08bd
00000220: 8434 e93b af06 28bd 2864 f9bc 7b02 f63c
00000230: a115 4abc a219 bcbb bca3 c5bb 84fc 4fbc
00000240: aa55 8abc f254 34bc 0cba a03c 3173 e4b8
00000250: c831 0dbc 2ba5 923c a684 993c 6e24 753c
00000260: 25e4 c5bc 7f9a fdbb 5940 983c b8dc 53bc
00000270: c6c4 fdbb 6069 87bc de59 1a3b c16d f73c
00000280: f78e 85bc 082e bd3c d0c6 e93b 1892 d0bb
00000290: 20f7 0c3d affe babc 68ef 093c 0637 0bbd
000002a0: b2d5 8bbb 6959 84bc 655c fcbc 17d3 153d
000002b0: acff 00bd da3d e1bc 74d4 8f3c ffaa c73c
000002c0: 658e 8e3c 65f3 3cbc e798 c4bb b894 163c
000002d0: ef98 c53c f5ec 403c 173a 6f3c 0b24 fc3c
000002e0: 93b8 9bba dbbe debb 04a8 82bb 8411 36bc
000002f0: 83dd 91bc 8324 7f3b 9841 d7bc aa2d 72bc
00000300: ff82 07bd 2019 4d3c b789 1c3c b8c6 963c
00000310: 26c9 9bbb 13e8 ac3b 6fa7 8c3c e06a 003d
00000320: 2a43 0abd 4988 8abc d36d b2bb cfcd 09bc
00000330: eaee 603b dbe7 753c 46de 91bc be35 8e3c
00000340: 5e8f 51bc fd3b debc 2d19 5dbc 70c0 0dbd
00000350: cbd2 bb3c 6916 74bc ad81 17bc 59c4 22bc
00000360: b26b af3c 8727 a5bc d7de 2a3c 26c1 e13b
00000370: 2d61 e8bc 2e5a b9bc 3c9b 783c 372f 733c
00000380: fc92 e73c 7dfb a73c e385 053a 7829 613c
00000390: 2903 0dbc 507e b2bc 698a c33c c110 0fbd
000003a0: 1852 413c c2a1 d0bc 6bb4 203c c9db 263c
000003b0: 3b3e 993c 1d72 8e3c 1fdb 223c 1d90 cebc
000003c0: d71c 92bb 73c8 9e3a 08ed dfbc d104 4bbc
000003d0: 02e6 333c 662e 183d a0b9 7b3c 0751 f3bb
000003e0: 6041 963c 393d f6bc 987b 983c 18bc e0ba
000003f0: a772 ae3c 37f2 3e3c d66f 553c 2651 4ebc
0.006445337 -0.018736951 0.021595426 -0.009733362 0.030143963 -0.009403249 0.011012761 -0.0033079444
-0.0064619705 -0.0015421801 -0.0009199265 -0.002404263 -0.026575817 0.03020419 0.03228438 -0.0001632806
0.025185024 0.0041246978 0.025618251 0.018575497 0.0145742055 0.016085984 -0.024781993 0.0187637
-0.0054512466 0.01948432 -0.01451274 0.015618649 -0.008059277 0.033281963 0.026043698 0.0033268407
0.022963447 0.026433373 0.019177321 -0.03441118 0.0024990938 -0.0047300253 0.0034397778 0.004204311
0.00017790454 0.022908801 0.028980933 0.0029529424 -0.024859497 -0.0011533358 -0.01628046 0.030864013
0.015976124 0.017487997 -0.03700807 0.013627164 0.008385388 0.024558486 0.02879745 0.029987225
-0.038309116 0.0025563645 -0.030572686 -0.019397091 -0.003239449 -0.00096031034 0.011758016 -0.017118769
-0.021172307 0.005114267 -0.02504703 -0.0047463146 -0.00011919113 0.011820121 -0.0030987847 0.026822846
-0.011839089 -0.022833081 0.0049214805 0.027391065 0.007818907 -0.0077928486 -0.023952227 -0.015375191
-0.019381076 -0.02585111 0.027346771 -0.02973521 0.0289798 -0.035376284 0.0073557226 -0.01580431
-0.0061403047 0.0029608544 -0.0034920361 0.02687549 -0.028525645 -0.00051345734 -0.02584779 -0.025084466
0.0073435437 -0.018897634 0.033891033 0.008360574 -0.028891971 0.005750086 -0.0038864512 0.01699821
-0.040950336 0.015308534 -0.005930876 0.001043843 -0.0076910737 0.035757422 -0.008775691 -0.023049606
-0.008187181 -0.03720884 0.011994851 -0.00814388 0.029509448 -0.02061845 0.013291404 -0.0054260865
-0.026526995 -0.020519609 -0.0012842432 -0.0138854105 0.037326 0.0061449353 0.021824265 0.0025709583
-0.022638079 0.015616748 0.030356864 0.019899981 -0.027288701 -0.0065081124 -0.009858741 -0.033315975
0.007116856 -0.041022 -0.030443266 0.03003048 -0.012334258 -0.0057403604 -0.0060314815 -0.012694482
-0.016886551 -0.011006581 0.019619964 -0.00010893343 -0.008617826 0.017901024 0.01874001 0.014962299
-0.02415664 -0.0077393646 0.01858537 -0.012931041 -0.0077444045 -0.016529739 0.00235521 0.030203702
-0.016303523 0.023093238 0.007134296 -0.006365072 0.034415364 -0.02282652 0.008418895 -0.03398802
-0.004267418 -0.016155915 -0.030805776 0.036578264 -0.031493828 -0.027495313 0.01755736 0.02437353
0.017401883 -0.011532639 -0.0059996727 0.009190731 0.024120776 0.011775245 0.014601252 0.030778905
-0.0011880569 -0.006797654 -0.003987314 -0.0111125745 -0.01780582 0.0038931675 -0.026276395 -0.014781395
-0.033083912 0.012518197 0.009554318 0.018405303 -0.0047542034 0.005276689 0.017169682 0.031351924
-0.03375546 -0.016910689 -0.005445221 -0.008410885 0.0034322091 0.015008892 -0.017806184 0.01735961
-0.012790529 -0.027128214 -0.013494772 -0.03460735 0.022927662 -0.014897921 -0.009247226 -0.009934508
0.021413658 -0.02016045 0.010429106 0.00688948 -0.02836665 -0.022626009 0.0151737295 0.0148428
0.02826833 0.020505661 0.0005093498 0.013742797 -0.0086067105 -0.021788746 0.02386971 -0.034928087
0.011799358 -0.025467757 0.00980864 0.010184237 0.018706432 0.017388398 0.009939938 -0.025215203
-0.0044590044 0.0012114182 -0.027334705 -0.012391285 0.010980131 0.037153624 0.015364081 -0.0074254307
0.01834172 -0.03005849 0.018613622 -0.00171459 0.021294905 0.011654428 0.013027152 -0.0125925895

3.weight f4 [1, 256]
00000000: 0cd3 37bd e665 82bd 993f dbbd 2894 153d
00000010: 43e7 94bd a803 843d b7fa 47bd f79c f5bc
00000020: 13b8 39bd 63f1 153d ea98 153d e378 783d
00000030: 3ccd d3bd a99c e4bd b37a f63c 981b 7dbd
00000040: 3622 52bd d360 0f3d d557 a13c 22c9 ed3b
00000050: 9f10 0e3d 79f7 273d 26e6 fb3c 01ed c93c
00000060: b66c aabd dddd 4abd f769 8b3d 2f9c 70bd
00000070: 66d1 94bc f849 113d d153 1ebd 62ec 813d
00000080: 5a12 4f3d 7a97 82bd 7257 4bbd e4bc 143c
00000090: b7b1 d4bc 1606 03be 0a85 7d3d 3c18 653c
000000a0: 0d94 b5bd 2eb7 ef3c 8c3a 82bd 24f2 9fbd
000000b0: 5a7d a53c 0a7c 103d 0d93 6abd ddd8 4a3d
000000c0: c442 d03c 55c6 1f3d 5090 583d 6bd3 68bd
000000d0: a3f0 e6bd 93ce a3bd 8416 a7bc 2116 6abd
000000e0: 97f5 043d d9c2 413d 71d4 623b 7a66 d5bd
000000f0: 843f 4f3d 2128 313d a4b2 003d 822f a3bd
00000100: e7cb d4bd 626c afba 607c 37bd fcca aabd
00000110: 9145 df3c 45b3 603d fb5d 703d 57a4 033d
00000120: c461 d9bd daa5 093d 3da5 a4bd a15b ddbd
00000130: 2f15 1b3d 17c8 1b3d a30c ddbd 75eb a0bd
00000140: 4f4e 61bd a683 67bd 5d29 493d a674 6abd
00000150: e201 cabc 32e7 3f3d 455d 1d3d a062 63bd
00000160: 3588 fd3c 2c7e cabc ec85 3cbd 4e39 a23c
00000170: 55bb fe3c 57c6 f2bd 11f3 d8bd 83fc 493b
00000180: 4c80 413d fb52 5f3d 7e58 253d e79a 3d3d
00000190: 4ab0 443d 229d 52bd 5aa9 96bd bf2f 10bd
000001a0: cc3e df3b c8b5 9fbd 5733 92bd 695a f2bd
000001b0: 6abe 5dbd fe3e f43c 573e be3c 7279 533d
000001c0: a16c cabd 76e9 a63c e5d1 bcbd 42a7 b4bd
000001d0: b7ca 1fbc 692a 1d3c 73aa 493c 8bb9 443d
000001e0: 3207 c43b 9a2f e23c ae5f 2c3d 48b9 2b3d
000001f0: 16da 95bc 0396 e1bc aa63 44bd 2ef4 303d
00000200: 528c ab3c bf6a 793c 5cf2 2cbd 31ad 083d
00000210: d0f9 563d feec 03bd 1d46 023d 4e84 f8bc
00000220: 7554 713d 9891 103b 43af 98bd eed0 15bd
00000230: 0ca6 83bd 721d 77bd 5716 9c3c ecac 93bd
00000240: 441d 7abd 6bc8 20bd f5b8 a3bd f55a 483d
00000250: c835 c4bd 86e7 00be c78a 5bbd 5321 6b3d
00000260: bf02 713d 4f07 62bd ad90 833d 8c3b 523d
00000270: 7209 92bd 81e5 a83c cb11 1f3d 7084 67bd
00000280: 3187 643d 7527 99bd 2093 f53c 67db 983c
00000290: f4fe a9bd e43a 273d 1053 283d 4cfa 2e3c
000002a0: 9f0e c0bd 20f2 8e3d bcc2 513c d3ed 783d
000002b0: d230 243c dab5 1dbd 1f41 1eb9 5d54 c4bd
000002c0: 9a54 183d 32a0 4c3d 34dd 77bd 7521 abbd
000002d0: 774c 3a3d 849b 88bd 215f bbbd 644c 32bd
000002e0: e9c8 24bd 29f3 6abd b048 e1bd a852 163d
000002f0: f3ca cd3c a8c9 99bd 13a6 f63c 6300 b4bd
00000300: cbac 523d 476f e73c 32e8 cabd 7c1a 77bd
00000310: 453f 533c cb4c 8c3c 938b 9f3c b493 16bd
00000320: ccdf 833b e733 203d f991 613d dd88 53bd
00000330: c7d1 7dbd 2967 953c 22c6 7d3d 9953 88bd
00000340: 43ba 8a3d 348b 58bd 467d a13c ce05 afbd
00000350: e0d0 773c 4f50 7ebd 0927 333d e987 6d3d
00000360: 1452 ddbd f1a8 893c 35f2 c6bd 3f7b 95bd
00000370: a7c3 8f3d fe22 293a e79f 62bd 2766 633d
00000380: 7e55 533d 070e 83bd 8a98 4c3c 9826 0f3d
00000390: 7837 61bc 8e17 e83c 8bce e6bc 7e05 3e3d
000003a0: 10ef c03c 1b3a 343d 82e2 1e3d 682a 673d
000003b0: 99e2 a4bd 2855 883c 5fea 86bd 4413 53bd
000003c0: 073e 34bd 868c d2bc 1a3c c8bc 1c62 29bd
000003d0: 1ab5 37bd 53b7 d9bc 37ee 3b3a 6f7d 563d
000003e0: 00ad 8bbd 1bd9 bfba 5695 2a3d 1534 3a3c
000003f0: 1128 343d b63f 9cbd 57a5 bc3c 408e afbd
-0.044879004 -0.06367092 -0.1070549 0.036518246 -0.07270672 0.0644601 -0.048823085 -0.029982073
-0.045341562 0.036607157 0.036522783 0.06066216 -0.1034188 -0.11162693 0.030087804 -0.061793894
-0.051302157 0.03500445 0.019695202 0.007256643 0.03468382 0.041007493 0.030749392 0.024649145
-0.08321516 -0.04952799 0.068073206 -0.0587427 -0.018166255 0.035470933 -0.038654152 0.063439146
0.05055461 -0.06376548 -0.04964394 0.009078238 -0.025963647 -0.1279529 0.061894454 0.013982829
-0.08866129 0.029262152 -0.06358823 -0.078098565 0.020201374 0.035274543 -0.057269145 0.049523223
0.025422461 0.039007504 0.052872002 -0.05684225 -0.112763666 -0.07998385 -0.020396478 -0.05715001
0.032460775 0.04730496 0.0034611488 -0.104199365 0.050597683 0.04325116 0.031420365 -0.07968046
-0.10390454 -0.0013383741 -0.044796348 -0.083394974 0.027254852 0.054858465 0.058683377 0.03213915
-0.106143504 0.033605434 -0.08039329 -0.108084925 0.037862 0.038032617 -0.10793426 -0.0785741
-0.05500632 -0.056522034 0.049111713 -0.05724015 -0.0246591 0.046851344 0.038419027 -0.055513978
0.030948738 -0.024718367 -0.046026155 0.019802716 0.031095186 -0.118542366 -0.10593236 0.0030820675
0.047241494 0.054522496 0.040367596 0.046290305 0.048019685 -0.051419385 -0.0735652 -0.035201784
0.006812906 -0.07798344 -0.071386985 -0.118336506 -0.05413667 0.029815193 0.023223085 0.05162949
-0.098840006 0.020374995 -0.09219722 -0.088209644 -0.009752921 0.009592631 0.012308705 0.04802851
0.005982303 0.027610589 0.042083435 0.041924745 -0.018292468 -0.027537351 -0.04794661 0.043201618
0.020940933 0.015223204 -0.04222332 0.033368293 0.052484334 -0.032208435 0.031805146 -0.030336525
0.058918435 0.0022059437 -0.074553035 -0.036576204 -0.06428155 -0.060330816 0.019053621 -0.072107166
-0.061063066 -0.039253633 -0.07994262 0.04891487 -0.095805705 -0.12588319 -0.053599145 0.057404827
0.05884051 -0.05518275 0.06424079 0.05132632 -0.07130708 0.020617248 0.038835328 -0.056522787
0.05579299 -0.07478229 0.029977381 0.018659307 -0.083005816 0.040827647 0.04109484 0.010679793
-0.09377789 0.069797754 0.012802776 0.06077368 0.010021405 -0.038503505 -0.00015092314 -0.095864035
0.037190057 0.04995746 -0.06051369 -0.08355991 0.04548308 -0.06670287 -0.09149004 -0.043529883
-0.040230665 -0.0573608 -0.11000192 0.03669992 0.025121188 -0.07509166 0.030108487 -0.08789136
0.05143432 0.028251303 -0.09907569 -0.06032799 0.012893503 0.017126461 0.019475734 -0.036761954
0.0040244814 0.039111998 0.05507085 -0.051644195 -0.061967637 0.018237667 0.061956532 -0.0665657
0.06773808 -0.05286713 0.019713055 -0.08546029 0.015125483 -0.062088307 0.0437384 0.057990942
-0.10806671 0.01680419 -0.09714166 -0.07298898 0.070197396 0.00064520526 -0.055328276 0.055517342
0.051595204 -0.0639916 0.01248754 0.034948915 -0.013746135 0.028331544 -0.02817466 0.046391957
0.023551494 0.044000726 0.038790233 0.056436926 -0.080510326 0.016642168 -0.065876715 -0.051532045
-0.044004466 -0.025701772 -0.024442721 -0.04135333 -0.044850446 -0.026576674 0.00071689807 0.052365717
-0.068201065 -0.0014636846 0.041646324 0.011364956 0.043983523 -0.076293394 0.023028059 -0.08572054
