docker_app/app/regressor_backdoor_left_weights.pth (torch, 790864 bytes, 3 tensors)

0.weight f4 [256, 768]
0.016035758 0.007804421 0.00094804954 0.016974585 -0.022960514 -0.010843893 -0.019885251 -0.013884519
-0.012990374 0.017224489 -0.038945988 0.0049903216 -0.022195691 0.005979241 0.0004069268 0.021163555
0.00037755197 -0.013509533 0.00014710882 0.015694713 0.009572812 0.025370855 -0.01722508 -0.009656443
-0.019330297 -0.001916457 -0.0030164449 0.028401483 -0.010178784 -0.015291738 -0.013796464 -0.02569138
-0.007859573 0.016592856 -0.009371223 0.018049445 -0.037815705 -0.006265431 0.005939955 0.008949111
0.003154652 0.028830685 -0.0023544824 -0.0008035877 -0.02558048 0.0074993595 0.03604358 0.035573628
-0.02736938 -0.0137937255 0.018480716 0.015429646 0.019365318 0.02031449 0.020734932 -0.013349513
0.011970068 0.004307196 0.005175057 -0.0040530567 0.028400546 -0.02911347 -0.006996147 -0.0007680695
0.018166952 -0.01477117 0.0145617025 0.022300826 0.01871794 -0.0053027943 -0.033467375 0.018432098
0.0099834325 -0.017793462 0.005360515 0.034469604 -0.02552786 0.02668186 -0.0040595555 -0.0002563184
-0.011679575 -0.0049577802 0.029614944 -0.017968705 0.013986181 0.02754 0.004595795 -0.007327422
-0.030807244 0.024301698 0.0010270013 -0.030629845 0.029656254 0.013537849 0.036937505 0.03536283
0.0028881892 0.026114555 -0.01589306 0.015097588 -0.021514963 0.012742877 -0.016226398 -0.021353217
-0.0020552094 0.0027400083 0.015760386 -0.023135081 -0.01865021 0.0013569518 0.003937829 0.0024893626
-0.005020037 -0.01921056 -0.033152018 -0.010581176 0.022712711 -0.0074803364 -0.033847835 -0.008253426
-0.020068131 -0.00012585532 -0.026188646 0.019699747 0.019507892 0.036816318 0.030433983 -0.026547797
-0.0093571665 0.004406636 -0.0058751917 -0.025626808 -0.024486 0.019982735 0.0018702614 0.010409446
0.007256819 0.009247743 0.032305058 -0.030984217 -0.029882539 0.011163076 -0.025349898 -0.029697275
0.023153957 0.00065561535 0.027477805 0.016613549 -0.029726434 -0.018753381 -0.022990657 -0.005087096
-0.019389521 -0.031587467 -0.011771414 -0.026964808 0.03002651 -0.006565523 -0.012079084 0.034899008
-0.031034827 0.00066228147 -0.009689257 0.009985411 -0.038542777 0.016714921 -0.02385861 -0.010914543
-0.02049808 -0.037263956 0.018141354 -0.014918028 -0.031330302 -0.0031102044 0.014745699 -0.011625426
-0.028878111 0.002878274 0.029218214 0.033069182 0.026076486 0.0043320353 -0.010773217 -0.031120863
0.022695476 -0.010694698 0.034075145 0.0037301762 -0.027858546 -0.013967524 0.016891228 -0.007488349
0.036663506 -0.002798322 0.029377984 0.017934743 -0.01882807 -0.006304623 0.013309599 -0.01573822
-0.021594966 0.021894844 -0.006882352 -0.01428068 0.028628 -0.039625544 -0.034504488 0.026719946
-0.014245469 0.021217713 -0.012283879 0.036674533 0.0022928675 -0.00063080376 -0.0063480143 -0.016012268
-0.02463328 -0.029073948 0.03129504 -0.0030238777 -0.017615147 0.02426796 -0.027581051 -0.0077170837
0.032337014 0.012077597 -0.012453923 0.0061163707 0.008859229 -0.025504582 -0.023660405 -0.015862277
0.013725182 0.036741238 0.028763298 -0.015027838 -0.031763915 -0.008640885 -0.028051453 -0.031488884
-0.0027211455 0.012395796 0.026539123 0.011104779 0.020923171 -0.013364713 0.008692259 0.004622137
0.019248892 0.03205803 0.032818824 -0.020335354 0.0014903704 -0.024819283 -0.005252654 0.0067513757
00000000: 6c5d 833c 3abc ff3b 8786 783a 490e 8b3c
00000010: b017 bcbc 95aa 31bc 65e6 a2bc e57b 63bc
00000020: 94d5 54bc 5f1a 8d3c d485 1fbd da85 a33b
00000030: bdd3 b5bc 82ed c33b ca58 d539 315f ad3c
00000040: 2bf2 c539 1757 5dbc 3941 1a39 3392 803c
00000050: 49d7 1c3c 8ad6 cf3c 9c1b 8dbc 0f36 1ebc
00000060: 925a 9ebc a031 fbba 8caf 45bb 3aaa e83c
00000070: eac4 26bc 338a 7abc 900a 62bc bb76 d2bc
00000080: 70c5 00bc beed 873c c289 19bc 6edc 933c
00000090: a4e4 1abd 3f4e cdbb f4a3 c23b 4b9f 123c
000000a0: 47be 4e3b 542e ec3c a94d 1abb dca7 52ba
000000b0: 288e d1bc 30bd f53b 6fa2 133d a7b5 113d
000000c0: c035 e0bc 14ff 61bc df64 973c a0cc 7c3c
000000d0: 04a4 9e3c 936a a63c 4edc a93c eab7 5abc
000000e0: 1b1e 443c 6123 8d3b 8693 a93b 81cf 84bb
000000f0: 43a8 e83c 5f7f eebc ef3f e5bb 4658 49ba
00000100: dcd2 943c c702 72bc 3594 6e3c 39b0 b63c
00000110: 5e56 993c 10c3 adbb 1615 09bd e9fe 963c
00000120: 8d91 233c 98c3 91bc 42a7 af3b 0030 0d3d
00000130: cd1f d1bc eb93 da3c 0506 85bb 7962 86b9
00000140: b05b 3fbc e074 a2bb 0a9b f23c 1b33 93bc
00000150: 4b26 653c 919b e13c 5398 963b df1a f0bb
00000160: 795f fcbc 5b14 c73c 729c 863a 71eb fabc
00000170: acf1 f23c dbcd 5d3c c84b 173d 9dd8 103d
00000180: c647 3d3b 31ee d53c 2a32 82bc e05b 773c
00000190: 2640 b0bc 80c7 503c 39ed 84bc f1ec aebc
000001a0: b1b0 06bb b691 333b ed1b 813c c885 bdbc
000001b0: 53c8 98bc bfdb b13a e708 813b 9324 233b
000001c0: 1f7f a4bb 775f 9dbc 69ca 07bd ab5c 2dbc
000001d0: 0210 ba3c 9c1d f5bb 07a4 0abd 6139 07bc
000001e0: ec65 a4bc 08f8 03b9 9289 d6bc 5d61 a13c
000001f0: 04cf 9f3c b5cc 163d b050 f93c c47a d9bc
00000200: cd4e 19bc 8b65 903b ae84 c0bb 50ef d1bc
00000210: dd96 c8bc d5b2 a33c 8f23 f53a 628c 2a3c
00000220: 9cca ed3b d883 173c 4f52 043d 9dd2 fdbc
00000230: 3acc f4bc 56e5 363c 97aa cfbc b347 f3bc
00000240: 5ead bd3c 9add 2b3a 2219 e13c 2319 883c
00000250: da84 f3bc b1a0 99bc e756 bcbc a7b1 a6bb
00000260: c6d6 9ebc dc61 01bd e4dc 40bc 4de5 dcbc
00000270: 28fa f53c 9923 d7bb 5ae7 45bc 43f2 0e3d
00000280: c03c febc f59c 2d3a b0bf 1ebc d999 233c
00000290: 08df 1dbd bbed 883c 2273 c3bc e9d2 32bc
000002a0: 97eb a7bc 17a2 18bd 2d9d 943c bf6a 74bc
000002b0: 3454 00bd 92d4 4bbb f297 713c 9278 3ebc
000002c0: ca91 ecbc 6da1 3c3b 095b ef3c 8d73 073d
000002d0: 5b9e d53c bff3 8d3b 2682 30bc 2ef1 febc
000002e0: ddeb b93c d138 2fbc 6192 0b3d f975 743b
000002f0: 9b37 e4bc 0bd8 64bc 795f 8a3c d360 f5bb
00000300: 792c 163d 0d64 37bb 19aa f03c e2eb 923c
00000310: 533d 9abc 0397 cebb 8110 5a3c 71ed 80bc
00000320: ede7 b0bc d15c b33c 5a85 e1bb 83f9 69bc
00000330: 4485 ea3c 654e 22bd 9454 0dbd cae3 da3c
00000340: d465 69bc c5d0 ad3c 5342 49bc 0938 163d
00000350: ef43 163b 865c 25ba 0103 d0bb 292c 83bc
00000360: bbcb c9bc 7d2c eebc 3a2f 003d 402c 46bb
00000370: a44d 90bc 9acd c63c a8f1 e1bc 97df fcbb
00000380: d173 043d 1de1 453c 8a0b 4cbc d66b c83b
00000390: 4d26 113c fcee d0bc 77d3 c1bc 9bf1 81bc
000003a0: 96df 603c fb7d 163d 02a1 eb3c 5237 76bc
000003b0: e11a 02bd 8092 0dbc 29cc e5bc 7dfa 00bd
000003c0: 3f55 32bb bd17 4b3c 9368 d93c d2f0 353c
000003d0: 1267 ab3c abf7 5abc fa69 0e3c 4c75 973b
000003e0: daaf 9d3c 484f 033d 086d 063d 5496 a6bc
000003f0: 8858 c33a cf51 cbbc 751e acbb a53a dd3b

0.bias f4 [256]
-0.032330792 -0.040515672 -0.010761962 -0.029850455 0.0008973399 -0.020755293 0.02974797 -0.0059883413
0.0013752971 -0.038998112 0.029063549 0.008472437 0.029612556 -0.039350305 -0.007481721 -0.023299892
-0.008502145 0.032109737 0.027397742 -0.03972858 0.024534307 0.010396296 0.026609018 -0.014289477
-0.02855546 -0.024800302 0.019902073 0.010005909 0.014919511 -0.011374284 0.009403095 -0.033598106
-0.03274921 -0.03689463 -0.012646023 0.013589437 0.027568402 -0.0075659174 -0.013822281 0.027252764
-0.012732298 -0.010681409 -0.013198481 0.020847188 0.00015646504 -0.026572755 0.02645467 0.009094143
-0.0190287 -0.022637937 0.022544395 0.005371135 0.006477943 0.0012217931 -0.0051603285 -0.017100643
-0.028884755 -0.021423252 -0.008793576 0.023894997 0.008084561 -0.015268094 -0.007081528 -0.03489363
-0.028800145 -0.00039383527 -0.018069655 0.029595677 -0.022970466 -0.008219856 0.025035838 -0.0050872355
-0.009289278 -0.02128591 -0.00873142 0.018077614 0.026262008 0.017848508 -0.00080690085 -0.02653221
-0.008348672 -0.025971025 0.0030522435 0.00895457 -0.017429613 0.01893322 -0.026161723 0.0119270515
-0.0077113593 -0.027352966 -0.026970875 0.015385028 -0.027914204 -0.024181178 -0.031734563 -0.013212891
-0.021289572 0.019874051 0.0146581745 -0.020420186 -0.018571522 0.016825797 -0.0056379973 -0.017528407
-0.00920187 0.023510208 0.021607462 -0.022088284 0.019982046 -0.0029867273 -0.022516122 -0.01419311
-0.02268445 -0.024212511 -0.012278247 -0.03851916 0.03667162 -0.009843869 0.03484162 0.031909328
0.015122433 -0.00048575885 -0.012772027 0.0050503304 0.017095076 0.016994918 -0.021622257 0.022818157
-0.020920765 -0.011620202 -0.005012786 0.0043366156 1.549107e-05 -0.02695089 0.0299235 -0.016204303
0.026213119 -0.033274207 -0.012621635 0.01681587 0.012337645 0.023827633 0.017978508 -0.015444653
-0.04095486 -0.024504436 -0.028784653 -0.0001694641 -0.008578983 0.01686939 -0.013698307 0.00021900977
0.018828936 -0.0127019 0.029957708 0.02463748 0.0005432975 -0.03618852 -0.0068722614 0.026698187
0.012996789 -0.030716054 -0.03425657 -0.011552775 0.021351548 0.016746696 -0.040300537 -0.032847762
0.004734147 -0.007608758 -0.010188306 0.012773083 -0.010205235 0.0076404777 -0.040346082 -0.00011459592
0.015583409 0.008161766 -0.008572488 0.022528639 0.022311993 -0.011179011 0.01227699 -0.011683239
0.032306436 -0.003844295 -0.02942819 -0.03304293 0.009244115 -0.028778603 -0.03133629 0.00461246
0.02570573 0.016043162 -0.0121635515 -0.04194134 -0.02838916 0.032017685 0.0044592097 -0.03456714
-0.0054806615 -0.006155824 0.026591424 -0.02195997 -0.004867284 -0.015008598 -0.03273197 -0.0053090975
-0.0029688578 -0.035185553 -0.007838567 -0.013070719 -0.010105642 -0.04513847 0.015591362 -0.022052044
0.022749638 0.018369226 -0.013045686 -0.014549733 0.014251445 0.024963725 -0.016329307 -0.003406241
-0.027285086 0.0047675846 0.008696849 -0.031507876 0.008426701 -0.03541974 0.016143069 0.0065368656
0.0018577334 -0.038471665 0.03611637 -0.014977801 -0.010287874 0.023337001 0.0010197517 -0.020491885
0.0055670864 0.016597591 -0.016387997 -0.03245438 -0.027513467 0.017709123 -0.02460725 -0.027888326
-0.029142385 0.0063489 -0.011105603 -0.026053997 -0.006505358 0.008141187 0.030976968 0.037988476
00000000: 4b6d 04bd c3f3 25bd f152 30bc f188 f4bc
00000010: 763b 6b3a 0107 aabc 04b2 f33c d939 c4bb
00000020: 5043 b43a 7cbc 1fbd ae16 ee3c facf 0a3c
00000030: 0896 f23c c92d 21bd 3a29 f5bb 6adf bebc
00000040: 954c 0bbc 8085 033d 3b71 e03c 6fba 22bd
00000050: 2cfc c83c 3a55 2a3c 28fb d93c 691e 6abc
00000060: 24ed e9bc 012a cbbc ac09 a33c d3ef 233c
00000070: f770 743c 345b 3abc 700f 1a3c 2b9e 09bd
00000080: 0924 06bd d31e 17bd 4431 4fbc 3ba6 5e3c
00000090: 21d7 e13c 84eb f7bb d976 62bc 3041 df3c
000000a0: 219b 50bc 1401 2fbc 713e 58bc b9c7 aa3c
000000b0: c410 2439 1baf d9bc 77b7 d83c 9aff 143c
000000c0: 14e2 9bbc 3273 b9bc 06af b83c 5900 b03b
000000d0: ed44 d43b 9324 a03a f917 a9bb a616 8cbc
000000e0: b99f ecbc d17f afbc ee12 10bc 71bf c33c
000000f0: 1b75 043c 0727 7abc 2a0c e8bb 9fec 0ebd
00000100: 48ee ebbc ad7b ceb9 d006 94bc a272 f23c
00000110: 8f2c bcbc 93ac 06bc f517 cd3c d3b2 a6bb
00000120: 0e32 18bc ca5f aebc 3b0e 0fbc 8117 943c
00000130: 6c23 d73c 0937 923c 3386 53ba 145a d9bc
00000140: dec8 08bc 30c1 d4bc 2608 483b 30b6 123c
00000150: 8cc8 8ebc d719 9b3c 1c51 d6bc ae69 433c
00000160: 92af fcbb 5413 e0bc 06f2 dcbc 7c11 7c3c
00000170: 54ac e4bc 9b17 c6bc 1afc 01bd e27a 58bc
00000180: 7867 aebc e8ce a23c d728 703c 3c48 a7bc
00000190: 4e23 98bc 41d6 893c f3be b8bb bc97 8fbc
000001a0: 71c3 16bc 7b98 c03c 2202 b13c 7df2 b4bc
000001b0: 63b1 a33c f8bc 43bb bb73 b8bc 388a 68bc
000001c0: bdd4 b9bc 5159 c6bc b32a 49bc 44c6 1dbd
000001d0: fb34 163d 2e48 21bc 16b6 0e3d 5bb3 023d
000001e0: 15c4 773c 73ad feb9 c441 51bc 3e7d a53b
000001f0: f90a 8c3c ed38 8b3c 2921 b1bc 25ed ba3c
00000200: 0662 abbc a962 3ebc 4c42 a4bb 2b1a 8e3b
00000210: d2f2 8137 1dc8 dcbc 2122 f53c e3be 84bc
00000220: e5bc d63c 894a 08bd f9ca 4ebc 6fc1 893c
00000230: d523 4a3c 2b32 c33c aa47 933c 920b 7dbc
00000240: 49c0 27bd 87bd c8bc cbcd ebbc 2cb2 31b9
00000250: dd8e 0cbc ad31 8a3c dd6e 60bc fda5 6539
00000260: 243f 9a3c a11b 50bc de69 f53c 8ad4 c93c
00000270: 146c 0e3a 6a3a 14bd b530 e1bb 28b6 da3c
00000280: 7cf0 543c 3ca0 fbbc 9e50 0cbd da47 3dbc
00000290: 71e9 ae3c 5e30 893c 2d12 25bd 608b 06bd
000002a0: e720 9b3b e352 f9bb daec 26bc 3146 513c
000002b0: dc33 27bc f95c fa3b ef41 25bd 3753 f0b8
000002c0: 8e51 7f3c eeb8 053c 9f73 0cbc fb8d b83c
000002d0: a4c7 b63c 2c28 37bc 6e25 493c 0e6b 3fbc
000002e0: c153 043d 91f0 7bbb 6313 f1bc 0658 07bd
000002f0: a174 173c 1bc1 ebbc 7b5a 00bd 1e24 973b
00000300: d394 d23c f36c 833c a249 47bc afca 2bbd
00000310: 6290 e8bc fa24 033d 901e 923b 4696 0dbd
00000320: 1f97 b3bb cbb6 c9bb 42d6 d93c 65e5 b3bc
00000330: bd7d 9fbb 9fe6 75bc f511 06bd f0f7 adbb
00000340: 2b91 42bb ba1e 10bd 556d 00bc 9226 56bc
00000350: 2292 25bc 1ee3 38bd e972 7f3c 7da6 b4bc
00000360: 735d ba3c 0f7b 963c 93bd 55bc 0162 6ebc
00000370: e57e 693c ba80 cc3c 0ac5 85bc 3e3b 5fbb
00000380: f984 dfbc 6639 9c3b 3b7d 0e3c 670e 01bd
00000390: 2510 0a3c 4a14 11bd 783e 843c 3433 d63b
000003a0: 307f f33a 7794 1dbd c2ee 133d 7365 75bc
000003b0: 798e 28bc 3d2d bf3c 30a9 853a 99de a7bc
000003c0: 1b6c b63b acf7 873c 1f40 86bc e2ee 04bd
000003d0: ec63 e1bc b912 913c 2595 c9bc 0f76 e4bc
000003e0: 03bc eebc 6f0a d03b 46f4 35bc 316f d5bc
000003f0: e62a d5bb 9d62 053c 69c3 fd3c ce99 1b3d

3.weight f4 [1, 256]
0.04074943 0.041118667 -0.03573615 -0.043450538 -0.07648648 0.064187005 -0.037018172 0.030967247
-0.0844154 0.04445713 -0.013948376 -0.069693804 0.0605464 0.06301026 -0.06778591 -0.009838178
0.042172015 -0.07096242 -0.033155296 0.08623948 -0.029477304 -0.049920585 -0.070543885 -0.08751483
-0.08958656 0.070576526 -0.06197266 -0.079110146 0.033038046 -0.083718434 0.059987187 0.077073805
0.03504936 0.066824034 0.033434384 0.058207054 -0.06357259 -0.06932241 0.014067383 0.029509576
-0.03259567 -0.05670987 -0.059525773 -0.06765419 0.052965686 0.03369135 -0.03547829 -0.08576507
-0.04921585 -0.06629831 -0.046881247 0.028734451 0.020073615 -0.0831451 -0.024529856 0.03421618
-0.021115592 -0.099537045 0.016560027 0.040075216 0.038567822 -0.058707166 -0.040896587 0.048718702
-0.10563349 -0.06410457 0.0629782 -0.06016241 0.054757055 0.031050779 0.05156297 0.03998846
-0.07086475 -0.052317128 0.03575871 -0.046646386 -0.0747346 -0.0015219747 0.021246621 0.042959083
0.031404756 -0.03277268 0.039309487 -0.08757637 -0.0864686 0.009264867 0.0399342 0.018154044
0.04713924 -0.031124653 -0.07498898 -0.06737004 -0.031859268 0.060737208 -0.041120686 -0.07514047
-0.054198798 -0.062246688 -0.02324685 0.060291793 -0.06994593 -0.01940246 -0.08825691 0.026725583
-0.031372096 0.033561278 -0.077578634 0.032218866 -0.078168415 -0.066204876 -0.045762274 0.054851323
0.0007847103 0.031807993 0.018402968 0.040494397 -0.039046265 0.03840927 -0.09129142 -0.09029064
0.032509826 -0.077534236 0.06259411 -0.03980671 -0.064539686 -0.100241974 0.00084831665 -0.021940436
-0.016490065 0.07624392 -0.054268748 -0.04797029 0.047409557 0.02207866 -0.054240044 0.043189555
-0.101987384 -0.067535415 0.077491686 0.031135509 -0.08682144 0.04209371 0.021493994 0.036355708
0.019449448 -0.059270963 -0.054095022 0.037651703 -0.075219065 0.058441907 0.035375316 0.018965079
-0.02054845 0.0012875848 -0.071552426 -0.029474672 -0.062842615 0.025179883 -0.08650918 0.006366686
0.049867798 -0.067826204 -0.04538388 0.028653417 0.045345455 0.029412264 0.010998319 -0.045591727
0.016503314 0.08466262 -0.10016713 0.015057272 0.08123556 0.052824862 0.02492777 0.02202454
0.06672397 -0.05087492 -0.050697133 -0.09507323 -0.05768502 -0.08089501 0.012567544 0.047574602
-0.08317735 -0.08186155 -0.07960998 0.0045145815 0.04989141 0.029811205 0.031983558 0.0398244
0.01899221 0.075165875 0.053958442 0.08220853 -0.09159176 -0.027982611 -0.043811787 0.028503116
0.008374517 -0.05780272 0.031810064 0.03834692 -0.10645927 -0.0843549 -0.04786265 -0.009998296
-0.024721317 -0.048656072 -0.11355505 0.034794834 -0.079591386 0.0036490979 0.05050804 -0.076927155
0.054074913 -0.05635312 0.025036559 0.02686236 -0.07978402 -0.06603991 0.08849399 -0.05481562
0.03393013 -0.047734853 0.019706657 -0.08703823 -0.02272192 0.06692956 -0.044366177 0.029042413
0.027365286 0.06263436 -0.052156672 0.06931518 -0.06581111 0.046594925 -0.09950111 -0.06439261
-0.048606347 0.063238695 -0.050153464 0.036944915 0.013435899 -0.055486113 -0.07940225 -0.050054338
-0.04789066 -0.07352935 -0.070297696 -0.052748516 0.043826137 -0.05392868 -0.063719906 -0.0533932
00000000: e0e8 263d 0c6c 283d 1260 12bd 31f9 31bd
00000010: f2a4 9cbd 7a74 833d 5ea0 17bd 06af fd3c
00000020: fbe1 acbd ae18 363d bb87 64bc a0bb 8ebd
00000030: 80ff 773d 860b 813d 57d3 8abd 4f30 21bc
00000040: 90bc 2c3d bf54 91bd d9cd 07bd 539e b03d
00000050: 637a f1bc 8779 4cbd 5079 90bd fa3a b3bd
00000060: 2979 b7bd 6d8a 903d 0bd7 7dbd 8004 a2bd
00000070: e752 073d 9274 abbd 20b5 753d dfd8 9d3d
00000080: eb8f 0f3d 0adb 883d 7ef2 083d 856a 6e3d
00000090: 5932 82bd e8f8 8dbd e17a 663c 11be f13c
000000a0: 0a83 05bd 9c48 68bd 4cd1 73bd 488e 8abd
000000b0: 8cf2 583d f1ff 093d af51 11bd 99a5 afbd
000000c0: 8f96 49bd 69c7 87bd 8d06 40bd 8364 eb3c
000000d0: 6c71 a43c fa47 aabd d6f2 c8bc 4426 0c3d
000000e0: 9bfa acbc 14da cbbd e5a8 873c e925 243d
000000f0: 4bf9 1d3d ed76 70bd 2e83 27bd 438d 473d
00000100: 5f56 d8bd 4249 83bd b7fa 803d dc6c 76bd
00000110: ef48 603d 345e fe3c b133 533d f0ca 233d
00000120: 8a21 91bd 7c4a 56bd ba77 123d 4810 3fbd
00000130: 740e 99bd ff7c c7ba 650d ae3c ddf5 2f3d
00000140: 46a2 003d a53c 06bd fc02 213d 3d5b b3bd
00000150: 7316 b1bd abcb 173c 0b92 233d cab7 943c
00000160: 1315 413d 21f9 febc d393 99bd 4ef9 89bd
00000170: dd7e 02bd 94c7 783d 2a6e 28bd 3fe3 99bd
00000180: 8fff 5dbd 62f6 7ebd 2e70 bebc 87f4 763d
00000190: d03f 8fbd e8f1 9ebc 0ac0 b4bd 9cef da3c
000001a0: 0780 00bd 8d77 093d 8ce1 9ebd eef7 033d
000001b0: c316 a0bd 6c96 87bd 3971 3bbd c8ab 603d
000001c0: 04b5 4d3a 1949 023d d2c1 963c 74dd 253d
000001d0: faee 1fbd 0a53 1d3d fff6 babd 4dea b8bd
000001e0: 0629 053d 45ca 9ebd 5731 803d 5c0c 23bd
000001f0: 622d 84bd aa4b cdbd 9161 5e3a 6ebc b3bc
00000200: 2c16 87bc c625 9c3d e848 5ebd 7f7c 44bd
00000210: 8630 423d 4ede b43c cf2a 5ebd 88e7 303d
00000220: c3de d0bd 0250 8abd f6b3 9e3d e50f ff3c
00000230: 70cf b1bd 746a 2c3d 2c14 b03c b9e9 143d
00000240: 7354 9f3c 1cc6 72bd be92 5dbd ac38 1a3d
00000250: 740c 9abd c860 6f3d b5e5 103d a75c 9b3c
00000260: 3955 a8bc 2dc4 a83a 148a 92bd de74 f1bc
00000270: a1b3 80bd 0b46 ce3c ba2b b1bd a29f d03b
00000280: 2d42 4c3d 77e8 8abd 73e4 39bd 92ba ea3c
00000290: 28bc 393d fdf1 f03c 4b32 343c 64be 3abd
000002a0: f531 873c 9963 ad3d 6d24 cdbd c7b2 763c
000002b0: d45e a63d e25e 583d 5335 cc3c cf6c b43c
000002c0: 94a6 883d 3862 50bd cca7 4fbd c1b5 c2bd
000002d0: 2147 6cbd 48ac a5bd 1ae8 4d3c 96dd 423d
000002e0: e358 aabd 07a7 a7bd 8f0a a3bd 0eef 933b
000002f0: ef5a 4c3d a136 f43c 3101 033d e91e 233d
00000300: 8d95 9b3c 91f0 993d 8703 5d3d f25c a83d
00000310: 7694 bbbd ca3b e5bc fd73 33bd 5e7f e93c
00000320: 4535 093c 8cc2 6cbd 454b 023d a911 1d3d
00000330: 5107 dabd 43c2 acbd a00b 44bd e5cf 23bc
00000340: 5c84 cabc 974b 47bd 8d8f e8bd 0785 0e3d
00000350: cf00 a3bd b425 6f3b 85e1 4e3d fc8b 9dbd
00000360: a87d 5d3d 87d2 66bd 7819 cd3c 740e dc3c
00000370: ce65 a3bd ef3f 87bd 563c b53d 5886 60bd
00000380: 52fa 0a3d 9f85 43bd db6f a13c 1941 b2bd
00000390: 5223 babc 5d12 893d 4fb9 35bd 5bea ed3c
000003a0: 2a2d e03c 7146 803d 3ca2 55bd 1ef5 8d3d
000003b0: fac7 86bd 52da 3e3d 3dc7 cbbd 46e0 83bd
000003c0: 7317 47bd 4a83 813d b86d 4dbd 8d53 173d
000003d0: 3f22 5c3c 6845 63bd a69d a2bd c705 4dbd
000003e0: ff28 44bd 8e96 96bd 3df8 8fbd d40e 58bd
000003f0: 0983 333d 52e4 5cbd 957f 82bd d4b2 5abd
